…
2022-11-05 20:49:46.335373: I tensorflow/core/platform/cpu_feature_guard.cc:151] This TensorFlow binary is optimized with oneAPI Deep Neural Network Library (oneDNN) to use the following CPU instructions in performance-critical operations:  AVX2 FMA
To enable them in other operations, rebuild TensorFlow with the appropriate compiler flags.
Found 30000 files belonging to 10 classes.
Using 6000 files for validation.
['bhojpuri_pop', 'carnatic', 'classic_bollywood', 'desi_pop', 'ghazal', 'hindustani_classical', 'indian_indie', 'punjabi_hip_hop', 'sufi', 'tamil_pop']
(64, 75, 150, 3)
(64,)
0.0 1.0
Model: "sequential"
_________________________________________________________________
 Layer (type)                Output Shape              Param #
=================================================================
 rescaling_1 (Rescaling)     (None, 75, 150, 3)        0
 conv2d (Conv2D)             (None, 75, 150, 16)       448
 max_pooling2d (MaxPooling2D  (None, 37, 75, 16)       0
 )
 conv2d_1 (Conv2D)           (None, 37, 75, 32)        4640
 max_pooling2d_1 (MaxPooling  (None, 18, 37, 32)       0
 2D)
 conv2d_2 (Conv2D)           (None, 18, 37, 64)        18496
 max_pooling2d_2 (MaxPooling  (None, 9, 18, 64)        0
 2D)
 flatten (Flatten)           (None, 10368)             0
 dense (Dense)               (None, 128)               1327232
 dense_1 (Dense)             (None, 10)                1290
=================================================================
Total params: 1,352,106
Trainable params: 1,352,106
Non-trainable params: 0
_________________________________________________________________
Epoch 1/5


















































375/375 [==============================] - ETA: 0s - loss: 1.8316 - accuracy: 0.3614Epoch 1/5






































…
